…
    "execution": {
     "iopub.execute_input": "2025-03-19T21:35:44.018270Z",
     "iopub.status.busy": "2025-03-19T21:35:44.017899Z",
     "iopub.status.idle": "2025-03-19T21:35:44.027180Z",
     "shell.execute_reply": "2025-03-19T21:35:44.026045Z"
    },
    "papermill": {
     "duration": 0.017922,
     "end_time": "2025-03-19T21:35:44.028821",
     "exception": false,
     "start_time": "2025-03-19T21:35:44.010899",
     "status": "completed"
    },
    "tags": []
   },
   "outputs": [
    {
     "data": {
      "text/plain": [
       "CLIP(\n",
       "  (visual): VisionTransformer(\n",
       "    (conv1): Conv2d(3, 768, kernel_size=(16, 16), stride=(16, 16), bias=False)\n",
       "    (patch_dropout): Identity()\n",
       "    (ln_pre): LayerNorm((768,), eps=1e-05, elementwise_affine=True)\n",
       "    (transformer): Transformer(\n",
       "      (resblocks): ModuleList(\n",
       "        (0-11): 12 x ResidualAttentionBlock(\n",
       "          (ln_1): LayerNorm((768,), eps=1e-05, elementwise_affine=True)\n",
       "          (attn): MultiheadAttention(\n",
       "            (out_proj): NonDynamicallyQuantizableLinear(in_features=768, out_features=768, bias=True)\n",
       "          )\n",
       "          (ls_1): Identity()\n",
       "          (ln_2): LayerNorm((768,), eps=1e-05, elementwise_affine=True)\n",
       "          (mlp): Sequential(\n",
       "            (c_fc): Linear(in_features=768, out_features=3072, bias=True)\n",
       "            (gelu): GELU(approximate='none')\n",
       "            (c_proj): Linear(in_features=3072, out_features=768, bias=True)\n",
       "          )\n",
       "          (ls_2): Identity()\n",
       "        )\n",
       "      )\n",
       "    )\n",
       "    (ln_post): LayerNorm((768,), eps=1e-05, elementwise_affine=True)\n",
       "  )\n",
       "  (transformer): Transformer(\n",
       "    (resblocks): ModuleList(\n",
       "      (0-11): 12 x ResidualAttentionBlock(\n",
       "        (ln_1): LayerNorm((512,), eps=1e-05, elementwise_affine=True)\n",
       "        (attn): MultiheadAttention(\n",
       "          (out_proj): NonDynamicallyQuantizableLinear(in_features=512, out_features=512, bias=True)\n",
       "        )\n",
       "        (ls_1): Identity()\n",
       "        (ln_2): LayerNorm((512,), eps=1e-05, elementwise_affine=True)\n",
       "        (mlp): Sequential(\n",
       "          (c_fc): Linear(in_features=512, out_features=2048, bias=True)\n",
       "          (gelu): GELU(approximate='none')\n",
       "          (c_proj): Linear(in_features=2048, out_features=512, bias=True)\n",
       "        )\n",
       "        (ls_2): Identity()\n",
       "      )\n",
       "    )\n",
       "  )\n",
       "  (token_embedding): Embedding(49408, 512)\n",
       "  (ln_final): LayerNorm((512,), eps=1e-05, elementwise_affine=True)\n",
       ")"
      ]
     },
     "execution_count": 4,
     "metadata": {},
     "output_type": "execute_result"
    }
   ],
   "source": [
    "model"
   ]
  },
  {
   "cell_type": "code",
   "execution_count": 5,
   "id": "c6cbe099",
   "metadata": {
    "execution": {
     "iopub.execute_input": "2025-03-19T21:35:44.043412Z",
     "iopub.status.busy": "2025-03-19T21:35:44.043045Z",
…
